…
*kwargs)\n\n\n\n# Compile the model with a lower learning rate\nimproved_model.compile(\n    optimizer=Adam(learning_rate=0.001),\n    loss='sparse_categorical_crossentropy',\n    metrics=['accuracy']\n)\n\n\n# Print model summary\nimproved_model.summary()\n\nModel: \"sequential\"\n\n\n\n┏━━━━━━━━━━━━━━━━━━━━━━━━━━━━━━━━━━━━━━┳━━━━━━━━━━━━━━━━━━━━━━━━━━━━━┳━━━━━━━━━━━━━━━━━┓\n┃ Layer (type)                         ┃ Output Shape                ┃         Param # ┃\n┡━━━━━━━━━━━━━━━━━━━━━━━━━━━━━━━━━━━━━━╇━━━━━━━━━━━━━━━━━━━━━━━━━━━━━╇━━━━━━━━━━━━━━━━━┩\n│ conv2d (Conv2D)                      │ (None, 100, 100, 32)        │             896 │\n├──────────────────────────────────────┼─────────────────────────────┼─────────────────┤\n│ batch_normalization                  │ (None, 100, 100, 32)        │             128 │\n│ (BatchNormalization)                 │                             │                 │\n├──────────────────────────────────────┼─────────────────────────────┼─────────────────┤\n│ conv2d_1 (Conv2D)                    │ (None, 100, 100, 32)        │           9,248 │\n├──────────────────────────────────────┼─────────────────────────────┼─────────────────┤\n│ batch_normalization_1                │ (None, 100, 100, 32)        │             128 │\n│ (BatchNormalization)                 │                             │                 │\n├──────────────────────────────────────┼─────────────────────────────┼─────────────────┤\n│ max_pooling2d (MaxPooling2D)         │ (None, 50, 50, 32)          │               0 │\n├──────────────────────────────────────┼─────────────────────────────┼─────────────────┤\n│ dropout (Dropout)                    │ (None, 50, 50, 32)          │               0 │\n├──────────────────────────────────────┼─────────────────────────────┼─────────────────┤\n│ conv2d_2 (Conv2D)                    │ (None, 50, 50, 64)          │          18,496 │\n├──────────────────────────────────────┼─────────────────────────────┼─────────────────┤\n│ batch_normalization_2                │ (None, 50, 50, 64)          │             256 │\n│ (BatchNormalization)                 │                             │                 │\n├──────────────────────────────────────┼─────────────────────────────┼─────────────────┤\n│ conv2d_3 (Conv2D)                    │ (None, 50, 50, 64)          │          36,928 │\n├──────────────────────────────────────┼─────────────────────────────┼─────────────────┤\n│ batch_normalization_3                │ (None, 50, 50, 64)          │             256 │\n│ (BatchNormalization)                 │                             │                 │\n├──────────────────────────────────────┼─────────────────────────────┼─────────────────┤\n│ max_pooling2d_1 (MaxPooling2D)       │ (None, 25, 25, 64)          │               0 │\n├──────────────────────────────────────┼─────────────────────────────┼─────────────────┤\n│ dropout_1 (Dropout)                  │ (None, 25, 25, 64)          │               0 │\n├──────────────────────────────────────┼─────────────────────────────┼─────────────────┤\n│ conv2d_4 (Conv2D)                    │ (None, 25, 25, 128)         │          73,856 │\n├──────────────────────────────────────┼─────────────────────────────┼─────────────────┤\n│ batch_normalization_4                │ (None, 25, 25, 128)         │             512 │\n│ (BatchNormalization)                 │                             │                 │\n├──────────────────────────────────────┼─────────────────────────────┼─────────────────┤\n│ conv2d_5 (Conv2D)                    │ (None, 25, 25, 128)         │         147,584 │\n├──────────────────────────────────────┼─────────────────────────────┼─────────────────┤\n│ batch_normalization_5                │ (None, 25, 25, 128)         │             512 │\n│ (BatchNormalization)                 │                             │                 │\n├──────────────────────────────────────┼─────────────────────────────┼─────────────────┤\n│ max_pooling2d_2 (MaxPooling2D)       │ (None, 12, 12, 128)         │               0 │\n├──────────────────────────────────────┼─────────────────────────────┼─────────────────┤\n│ dropout_2 (Dropout)                  │ (None, 12, 12, 128)         │               0 │\n├──────────────────────────────────────┼─────────────────────────────┼─────────────────┤\n│ flatten (Flatten)                    │ (None, 18432)               │               0 │\n├──────────────────────────────────────┼─────────────────────────────┼─────────────────┤\n│ dense (Dense)                        │ (None, 512)                 │       9,437,696 │\n├──────────────────────────────────────┼─────────────────────────────┼─────────────────┤\n│ batch_normalization_6                │ (None, 512)                 │           2,048 │\n│ (BatchNormalization)                 │                             │                 │\n├──────────────────────────────────────┼─────────────────────────────┼─────────────────┤\n│ dropout_3 (Dropout)                  │ (None, 512)                 │               0 │\n├──────────────────────────────────────┼─────────────────────────────┼─────────────────┤\n│ dense_1 (Dense)                      │ (None, 43)                  │          22,059 │\n└──────────────────────────────────────┴─────────────────────────────┴─────────────────┘\n\n\n\n Total params: 9,750,603 (37.20 MB)\n\n\n\n Trainable params: 9,748,683 (37.19 MB)\n\n\n\n Non-trainable params: 1,920 (7.50 KB)\n\n\n\n\n# Define callbacks to improve training\ncallbacks = [\n    # Reduce learning rate when validation accuracy plateaus\n    ReduceLROnPlateau(\n        monitor='val_
…
